model.pth (torch, 5684 bytes, 6 tensors)

module.layers.0.weight f4 [30, 2]
0	0x3edcd555	0.4313151
1	0xbdcea621	-0.1009028
2	0xbe0c8204	-0.13721472
3	0x3e02d732	0.12777403
4	0xbf080e8a	-0.53147185
5	0x3d46d1a0	0.048539758
6	0x3e5826c7	0.21108542
7	0x3f34e098	0.706552
8	0xbe5486fe	-0.2075462
9	0x3e57f610	0.21089959
10	0x3f4dec14	0.8043835
11	0xbeb53f9f	-0.35400102
12	0x3f3b6fb6	0.7321733
13	0xbec35f3c	-0.38158596
14	0x3eaf09cd	0.34187165
15	0x3e863b1a	0.26216966
16	0x3e4e3f68	0.20141375
17	0x3f0d2590	0.5513544
18	0xbe9b0474	-0.30276835
19	0x3e8084ae	0.25101227
20	0x3ce705eb	0.028201064
21	0xbf0b1ef6	-0.5434412
22	0xbe2fd0ea	-0.17169538
23	0xbef1c71c	-0.4722222
24	0x3ea2f9d7	0.31831238
25	0x3d76f9b0	0.060296714
26	0x3df7bcbd	0.12096546
27	0xbe7690cf	-0.24078678
28	0x3b5ed522	0.0034001549
29	0xbe613823	-0.2199407
30	0x3e1b8eaf	0.15191148
31	0x3f45aa58	0.7721305
32	0x3e4e1c8b	0.20128076
33	0xbeb94b64	-0.3619033
34	0xbedc7ef6	-0.43065614
35	0x3d50380c	0.0508347
36	0xbf0649db	-0.52456445
37	0xbf08102f	-0.53149694
38	0xbeeba484	-0.46023953
39	0xbe75edd9	-0.24016513
40	0x3d1bc995	0.03803404
41	0x3f0bab2d	0.5455807
42	0x3e439658	0.1910032
43	0x3f1b2a83	0.6061174
44	0xbee98d35	-0.45615545
45	0x3dc699ae	0.09697281
46	0xbf22f0d6	-0.63648736
47	0x3edf093d	0.43561736
48	0x3e097c25	0.13426264
49	0x3f3ddf4d	0.74168855
50	0xbf00c2dd	-0.5029734
51	0x3f1027f6	0.56310976
52	0x3f238c15	0.63885623
53	0x3f02971d	0.5101183
54	0x3df41064	0.11917189
55	0x3f165215	0.58719
56	0x3ed7a114	0.4211508
57	0x3f22f6be	0.6365775
58	0xbd37925c	-0.044817314
59	0xbf0b082e	-0.54309356

module.layers.0.bias f4 [30]
0	0x3c9478bd	0.018123979
1	0x3e17bd87	0.14818393
2	0xbefc8427	-0.49319574
3	0xbebd38bf	-0.36957356
4	0xbf316f0e	-0.6931008
5	0xbe5508b0	-0.20804095
6	0x3f240dd8	0.64083624
7	0x3e09e861	0.13467552
8	0xbd38caad	-0.04511516
9	0x3d5336c7	0.05156591
10	0x3ee71b08	0.4513781
11	0xbf1fda01	-0.6244202
12	0xbf0b1fa0	-0.5434513
13	0xbe5b51fc	-0.21417993
14	0xbed05c1d	-0.40695277
15	0x3ec10435	0.37698522
16	0x3f09a6d4	0.53770185
17	0xbf2fe4c5	-0.6870845
18	0xbf19a09f	-0.60010713
19	0xbf3047a4	-0.68859315
20	0x3e935ead	0.2878317
21	0x3f0c1254	0.54715466
22	0xbf093797	-0.5360045
23	0xbea1f671	-0.31633332
24	0x3e7c2d49	0.2462665
25	0xbeed21a4	-0.46314728
26	0x3f18fdf0	0.5976248
27	0x3e15a579	0.14613904
28	0xbe2e73ba	-0.17036334
29	0x3d3e25e7	0.046422865

module.layers.2.weight f4 [20, 30]
0	0x3d328c75	0.04359098
1	0xbd84385d	-0.06456063
2	0xbe10dd2a	-0.14146867
3	0x3aa0d9c8	0.0012271935
4	0x3b59f1f1	0.003325578
5	0xbcb65656	-0.022257965
6	0xbd81c5ad	-0.06336532
7	0x3de1eb66	0.11031227
8	0xbd50afe6	-0.050949
9	0xbc90c48d	-0.017671848
10	0x3d73f3f8	0.05955884
11	0xbdeb5aa8	-0.11491901
12	0x3d3f4c03	0.04670335
13	0xbd32dac3	-0.04366566
14	0x3db35b0b	0.087575994
15	0xbdcb7308	-0.0993405
16	0xbc169cc2	-0.009192647
17	0x3c925178	0.017861113
18	0xbe166c93	-0.14689855
19	0xbe07f18e	-0.1327574
20	0x3d8f6674	0.07001963
21	0xbd73de12	-0.059537955
22	0x3dde10a6	0.10843019
23	0xbe38afd2	-0.1803582
24	0xbdb8d5db	-0.09025165
25	0xbe19fd0f	-0.1503794
26	0x3d6409a9	0.055673275
27	0xbbad717e	-0.0052930703
28	0xbd194bf6	-0.037425958
29	0xbd2146ce	-0.039374165
30	0xbe122248	-0.1427089
31	0x3d280d04	0.041028038
32	0xbb71c948	-0.0036893655
33	0xbe1927f3	-0.14956646
34	0x3d7b7adb	0.06139646
35	0xbb707d1c	-0.0036695665
36	0xbe34d063	-0.17657618
37	0x3db03524	0.08603886
38	0x3d8c7e40	0.06860018
39	0xbd5a586f	-0.053306993
40	0xbe0114df	-0.12605618
41	0x3bf03388	0.0073303618
42	0x3e0d12bd	0.1377668
43	0x3e2b20d4	0.16711742
44	0xbe0d1d53	-0.13780718
45	0xbe029a6a	-0.12754217
46	0x3e119188	0.14215672
47	0x3db6c290	0.089238286
48	0x3de774d2	0.113015786
49	0xbdba1bda	-0.090873435
50	0x3dfbdb1f	0.122976534
51	0xbe412940	-0.18863392
52	0xbc446f1e	-0.011989383
53	0xbcf3689a	-0.029712964
54	0xbc50c9b8	-0.012743406
55	0xbe33c468	-0.17555392
56	0x3e0964a6	0.134173
57	0x3e0dfe5c	0.13866562
58	0xbe12f68a	-0.1435186
59	0x3bdd0074	0.006744439
60	0xbddaf630	-0.10691488
61	0x3e5253c4	0.20539767
62	0x3de27ad6	0.11058585
63	0x3e373ed9	0.17895068
64	0x3d8952f4	0.06705275
65	0xbd10aeb2	-0.035322852
66	0x3da1b14f	0.07895147
67	0x3d010ed2	0.031508274
68	0x3bf8a33c	0.0075878184
69	0x3e121058	0.14264047
70	0x3d473c13	0.048641276
71	0xbd41c5a8	-0.04730764
72	0xbd52fe38	-0.051511973
73	0xbe278a5f	-0.16361378
74	0xbd4cfe07	-0.050046947
75	0x3d58795b	0.05285011
76	0xbde2e00d	-0.110778905
77	0xbe28d7a8	-0.16488516
78	0x3e12702a	0.143006
79	0xbe2714ba	-0.163165
80	0x3e8ce2dd	0.27516833
81	0x3c1980fe	0.009369133
82	0xbc127839	-0.008939796
83	0x3e6474c5	0.22310169
84	0x3e35321b	0.17694895
85	0x3d0b9f6b	0.03408758
86	0xbd8e2539	-0.069406934
87	0x3ccf5408	0.025308624
88	0x3e514471	0.20436265
89	0xbd95e917	-0.07319849
90	0x3e2093dd	0.15681405
91	0xbd00c9a2	-0.031442292
92	0xbcbebeca	-0.023284335
93	0x3d953b9a	0.07286759
94	0xbcdbc30c	-0.026826404
95	0x3b880b48	0.0041517355
96	0x3e070eb4	0.13189203
97	0x3d831941	0.06401301
98	0xbbee2240	-0.0072672665
99	0x3d8e6587	0.069529586
100	0x3e23a3d4	0.15980464
101	0x3d3c7b52	0.046016045
102	0xbd5a16ae	-0.053244285
103	0x3d7e45ed	0.062078405
104	0xbc82da7c	-0.015973322
105	0xbe123a86	-0.14280137
106	0xbd83d77b	-0.06437584
107	0x3daa0f6b	0.08303722
108	0x3bc4319c	0.005987359
109	0x3d89f3e2	0.0673597
110	0xbddada3e	-0.10686158
111	0x3e2fb3ce	0.17158434
112	0xbd9c0ab8	-0.07619232
113	0x3d1f7abd	0.03893541
114	0xbdb6b47e	-0.08921145
115	0xbdb4597c	-0.0880613
116	0x3db4f6ef	0.08836161
117	0xbd50bf9f	-0.050963994
118	0xbdefec44	-0.11714986
119	0xbd9890d3	-0.07449498
120	0x3e7fb56a	0.24971548
121	0x3da90c01	0.08254243
122	0x3dd6b9bc	0.10484645
123	0xbe600f4b	-0.21880834
124	0x3d9f15e2	0.07767846
125	0x3e87b247	0.26503202
126	0x3e3a8c2c	0.18217534
127	0x3d016503	0.031590473
128	0xbd0ebeef	-0.034850057
129	0xbe0e73fa	-0.13911429
130	0x3d468209	0.048463855
131	0x3e187f86	0.14892396
132	0x3b58436b	0.0032999169
133	0x3cf03842	0.0293237
134	0xbdeca5b8	-0.11555046
135	0xbe66c164	-0.2253471
136	0x3e9e13f4	0.30874598
137	0x3d8b279a	0.06794663
138	0xbcecb9fc	-0.028897278
139	0x3de3c9c0	0.11122465
140	0xbe3036c3	-0.1720839
141	0xbe5b4a48	-0.21415055
142	0xbe3b8865	-0.18313749
143	0x3c0bd230	0.008533999
144	0xbe36c762	-0.17849496
145	0x3d03f714	0.032218054
146	0x3e5a847d	0.21339603
147	0xbd136f11	-0.035994593
148	0x3dfc6e7c	0.12325761
149	0x3cf60d20	0.030035555
150	0x3e0d7d45	0.13817318
151	0xbda073c2	-0.07834579
152	0xbcbd0e13	-0.023078
153	0x3e127c29	0.14305176
154	0xbdc13723	-0.094343446
155	0x3dd0ce79	0.101956315
156	0xbba61472	-0.0050683552
157	0xbbdebaff	-0.006797194
158	0x3e336965	0.17520674
159	0x3e1aaa41	0.15104009
160	0xbdc180a3	-0.09448364
161	0x3c9111c8	0.017708674
162	0x3c9559ad	0.018231237
163	0x3e129fab	0.14318721
164	0x3dd21aa1	0.10258985
165	0x3e3bb098	0.18329084
166	0x3dafd51b	0.085855685
167	0xbe22a996	-0.15885004
168	0x3df869b1	0.12129534
169	0xbd469570	-0.04848236
170	0x3e312792	0.17300251
171	0x3e0e886d	0.1391923
172	0xbdd72dac	-0.10506758
173	0xba0a0d3b	-0.0005266254
174	0x3d73931c	0.059466466
175	0x3d965d9f	0.073420756
176	0xbe326c7a	-0.17424193
177	0x3d07b1ea	0.033128656
178	0x3de22a06	0.110431716
179	0x3dbdb168	0.09262353
180	0x3d882e20	0.06649423
181	0x3d5ca796	0.05387076
182	0xbe30e71d	-0.17275663
183	0x3e39bac5	0.18137653
184	0xbe116030	-0.14196849
185	0xbe1659a3	-0.14682631
186	0xbd4e96ba	-0.050436713
187	0x3d8c053c	0.06836936
188	0x3e26e990	0.16300035
189	0x3c5ba0d5	0.013405045
190	0xbde6a836	-0.112625524
191	0xbc80c2a1	-0.015717806
192	0x3d675100	0.056473732
193	0xbde00186	-0.109377906
194	0xbe226120	-0.15857363
195	0x3e437040	0.19085789
196	0xbe184b4f	-0.14872478
197	0xbdd26227	-0.10272627
198	0x3e1b1913	0.15146284
199	0xbdf662b7	-0.12030547
200	0xbd931d46	-0.07183318
201	0x3e61bb92	0.22044209
202	0xbdab1a26	-0.08354597
203	0x3d86d11a	0.06582852
204	0x3e8d0802	0.27545172
205	0xbc230cbf	-0.009951769
206	0x3e554620	0.20827532
207	0x3e617480	0.22017097
208	0x3e423b47	0.18967925
209	0x3d3517f7	0.044212308
210	0xbdfddd23	-0.12395694
211	0x3e11967f	0.14217566
212	0xbdecd5c0	-0.11564207
213	0xbd2d95ff	-0.042379376
214	0xbda36b5e	-0.07979463
215	0x399d30c0	0.00029981695
216	0xbdadc350	-0.084845185
217	0x3dfd337b	0.12363335
218	0x3e3ef540	0.18648243
219	0x3d61a1e1	0.05508602
220	0x3d7c33a6	0.061572693
221	0xbe071cd8	-0.13194597
222	0xbe39a5c1	-0.18129636
223	0xbe23133d	-0.15925308
224	0x3dce5602	0.100749984
225	0x3e8faa16	0.28059453
226	0xbdcce39e	-0.10004352
227	0x3dceea0a	0.10103233
228	0xbe0596bc	-0.13045782
229	0xbb61cd8b	-0.0034454789
230	0x3daad97e	0.083422646
231	0x3cd4ddfd	0.025984759
232	0xbdaa35bb	-0.083110295
233	0x3e1de779	0.15420331
234	0x3db660fb	0.08905216
235	0x3d2e82da	0.04260526
236	0x3e1bdce2	0.15220979
237	0xbd4729ca	-0.048623838
238	0x3e2555d0	0.16146016
239	0x3e0b7f69	0.13622822
240	0xbde5b4c5	-0.1121612
241	0xbe352adc	-0.17692131
242	0x3cb75ab4	0.022382118
243	0xbe17063b	-0.1474847
244	0x3d96e13b	0.07367178
245	0xbe151a8b	-0.14560907
246	0xbe11eb32	-0.14249876
247	0x3d380df5	0.044935185
248	0xbd6b3024	-0.057418957
249	0xbe2c929b	-0.168528
250	0x3d91e5ee	0.07123934
251	0x3d84134d	0.06448994
252	0x3cc98ea9	0.024604158
253	0x3df454e0	0.11930251
254	0xbd96200f	-0.073303334
255	0x3e19c088	0.15014851

module.layers.2.bias f4 [20]
0	0x3d0c6be5	0.034282584
1	0xbdc57703	-0.0964184
2	0x3e286ea6	0.16448459
3	0x3dfee8ee	0.124467716
4	0x3d3bdf76	0.045867406
5	0xbd873087	-0.06601053
6	0x3e2b0bc9	0.16703714
7	0xbd3d907f	-0.04628038
8	0xbe1786ec	-0.14797562
9	0xbdf1bcd5	-0.11803595
10	0xbe352899	-0.17691268
11	0x3e21594c	0.1575672
12	0x3e4fa6e1	0.20278503
13	0xbd3bda5a	-0.045862533
14	0x3daa71f0	0.08322513
15	0x3dcda0df	0.10040449
16	0xbd967acc	-0.073476404
17	0x3cfdd816	0.030986827
18	0xbcfe9215	-0.031075517
19	0xbd6a4e82	-0.057203777

module.layers.4.weight f4 [2, 20]
0	0xbe3505a8	-0.17677939
1	0xbdc8ea72	-0.09810342
2	0x3e5137ef	0.20431493
3	0xbe7120dd	-0.23547693
4	0xbeb202ef	-0.34767863
5	0xbcc50294	-0.02404908
6	0x3ecb6d9d	0.39732066
7	0x3e873732	0.26409298
8	0x3d998c12	0.074974194
9	0xbe2056e4	-0.15658146
10	0xbc901ca6	-0.017591786
11	0xbea71401	-0.3263245
12	0xbe92a0b9	-0.28638247
13	0x3d39a909	0.04532722
14	0x3dd024ca	0.10163267
15	0x3dd4d65e	0.1039245
16	0xbe5c8546	-0.21535215
17	0xbe4721ad	-0.1944644
18	0xbd2aa572	-0.041661687
19	0x3ecf65f1	0.40507463
20	0xbe3d2175	-0.18469794
21	0x3de473fc	0.11154935
22	0xbea71d5c	-0.32639587
23	0x3d4848de	0.048897617
24	0x3eb3e7d2	0.35137802
25	0xbeb2aea5	-0.34898868
26	0xbeb17ce5	-0.346656
27	0xbe6fd328	-0.23420393
28	0x3e22db68	0.1590401
29	0xbe593199	-0.21210326
30	0x3e82b81f	0.25531098
31	0x3e9edcc7	0.31027815
32	0x3e6b8e17	0.23003422
33	0x3eaa3047	0.33239958
34	0x3e0fec2b	0.14054935
35	0x3dce1896	0.10063283
36	0x3e1f020a	0.15528122
37	0x3e435a18	0.19077337
38	0x3e2e87ea	0.17044035
39	0xbdb5b444	-0.088722736

module.layers.4.bias f4 [2]
0	0xbdeb719c	-0.11496279
1	0x3daaff31	0.08349455
